…
weight_decay: 0.0005
stepsize: 60000
snapshot: 0
snapshot_prefix: "zf_rpn"
average_loss: 100
I0516 12:24:56.153049  9354 solver.cpp:131] Creating training net from train_net file: models/pascal_voc/ZF/faster_rcnn_alt_opt/stage1_rpn_train.pt
I0516 12:24:56.153725  9354 net.cpp:82] Initializing net from parameters: 
name: "ZF"
state {
  phase: TRAIN
}
layer {
  name: "input-data"
  type: "Python"
  top: "data"
  top: "im_info"
  top: "gt_boxes"
  python_param {
    module: "roi_data_layer.layer"
    layer: "RoIDataLayer"
    param_str: "\'num_classes\': 2"
  }
}
layer {
  name: "conv1"
  type: "Convolution"
  bottom: "data"
  top: "conv1"
  param {
    lr_mult: 1
  }
  param {
    lr_mult: 2
  }
  convolution_param {
    num_output: 96
    pad: 3
    kernel_size: 7
    stride: 2
  }
}
layer {
  name: "relu1"
  type: "ReLU"
  bottom: "conv1"
  top: "conv1"
}
layer {
  name: "norm1"
  type: "LRN"
  bottom: "conv1"
  top: "norm1"
  lrn_param {
    local_size: 3
    alpha: 5e-05
    beta: 0.75
    norm_region: WITHIN_CHANNEL
    engine: CAFFE
  }
}
layer {
  name: "pool1"
  type: "Pooling"
  bottom: "norm1"
  top: "pool1"
  pooling_param {
    pool: MAX
    kernel_size: 3
    stride: 2
    pad: 1
  }
}
layer {
  name: "conv2"
  type: "Convolution"
  bottom: "pool1"
  top: "conv2"
  param {
    lr_mult: 1
  }
  param {
    lr_mult: 2
  }
  convolution_param {
    num_output: 256
    pad: 2
    kernel_size: 5
    stride: 2
  }
}
layer {
  name: "relu2"
  type: "ReLU"
  bottom: "conv2"
  top: "conv2"
}
layer {
  name: "norm2"
  type: "LRN"
  bottom: "conv2"
  top: "norm2"
  lrn_param {
    local_size: 3
    alpha: 5e-05
    beta: 0.75
    norm_region: WITHIN_CHANNEL
    engine: CAFFE
  }
}
layer {
  name: "pool2"
  type: "Pooling"
  bottom: "norm2"
  top: "pool2"
  pooling_param {
    pool: MAX
    kernel_size: 3
    stride: 2
    pad: 1
  }
}
layer {
  name: "conv3"
  type: "Convolution"
  bottom: "pool2"
  top: "conv3"
  param {
    lr_mult: 1
  }
  param {
    lr_mult: 2
  }
  convolution_param {
    num_output: 384
    pad: 1
    kernel_size: 3
    stride: 1
  }
}
layer {
  name: "relu3"
  type: "ReLU"
  bottom: "conv3"
  top: "conv3"
}
layer {
  name: "conv4"
  type: "Convolution"
  bottom: "conv3"
  top: "conv4"
  param {
    lr_mult: 1
  }
  param {
    lr_mult: 2
  }
  convolution_param {
    num_output: 384
    pad: 1
    kernel_size: 3
    stride: 1
  }
}
layer {
  name: "relu4"
  type: "ReLU"
  bottom: "conv4"
  top: "conv4"
}
layer {
  name: "conv5"
  type: "Convolution"
  bottom: "conv4"
  top: "conv5"
  param {
    lr_mult: 1
  }
  param {
    lr_mult: 2
  }
  convolution_param {
    num_output: 256
    pad: 1
    kernel_size: 3
    stride: 1
  }
}
layer {
  name: "relu5"
  type: "ReLU"
  bottom: "conv5"
  top: "conv5"
}
layer {
  name: "rpn_conv1"
  type: "Convolution"
  bottom: "conv5"
  top: "rpn_conv1"
  param {
    lr_mult: 1
  }
  param {
    lr_mult: 2
  }
  convolution_param {
    num_output: 256
    pad: 1
    kernel_size: 3
    stride: 1
    weight_filler {
      type: "gaussian"
      std: 0.01
    }
    bias_filler {
      type: "constant"
      value: 0
    }
  }
}
layer {
  name: "rpn_relu1"
  type: "ReLU"
  bottom: "rpn_conv1"
  top: "rpn_conv1"
}
layer {
  name: "rpn_cls_score"
  type: "Convolution"
  bottom: "rpn_conv1"
  top: "rpn_cls_score"
  param {
    lr_mult: 1
  }
  param {
    lr_mult: 2
  }
  convolution_param {
    num_output: 18
    pad: 0
    kernel_size: 1
    stride: 1
    weight_filler {
      type: "gaussian"
      std: 0.01
    }
    bias_filler {
      type: "constant"
      value: 0
    }
  }
}
layer {
  name: "rpn_bbox_pred"
  type: "Convolution"
  bottom: "rpn_conv1"
  top: "rpn_bbox_pred"
  param {
    lr_mult: 1
  }
  param {
    lr_mult: 2
  }
  convolution_param {
    num_output: 36
    pad: 0
    kernel_size: 1
    stride: 1
    weight_filler {
      type: "gaussian"
      std: 0.01
    }
    bias_filler {
      type: "constant"
      value: 0
    }
  }
}
layer {
  name: "rpn_cls_score_reshape"
  type: "Reshape"
  bottom: "rpn_cls_score"
  top: "rpn_cls_score_reshape"
  reshape_param {
    shape {
      dim: 0
      dim: 2
      dim: -1
      dim: 0
    }
  }
}
layer {
  name: "rpn-data"
  type: "Python"
  bottom: "rpn_cls_score"
  bottom: "gt_boxes"
  bottom: "im_info"
  bottom: "data"
  top: "rpn_labels"
  top: "rpn_bbox_targets"
  top: "rpn_bbox_inside_weights"
  top: "rpn_bbox_outside_weights"
  python_param {
    module: "rpn.anchor_target_layer"
    layer: "AnchorTargetLayer"
    param_str: "\'feat_stride\': 16"
  }
}
layer {
  name: "rpn_loss_cls"
  type: "SoftmaxWithLoss"
  bottom: "rpn_cls_score_reshape"
  bottom: "rpn_labels"
  top: "rpn_cls_loss"
  loss_weight: 1
  propagate_down: true
  propagate_down: false
  loss_param {
    ignore_label: -1
    normalize: true
  }
}
layer {
  name: "rpn_loss_bbox"
  type: "SmoothL1Loss"
  bottom: "rpn_bbox_pred"
  bottom: "rpn_bbox_targets"
  bottom: "rpn_bbox_inside_weights"
  bottom: "rpn_bbox_outside_weights"
  top: "rpn_loss_bbox"
  loss_weight: 1
  smooth_l1_loss_param {
    sigma: 3
  }
}
layer {
  name: "dummy_roi_pool_conv5"
  type: "DummyData"
  top: "dummy_roi_pool_conv5"
  dummy_data_param {
    data_filler {
      type: "gaussian"
      std: 0.01
    }
    shape {
      dim: 1
      dim: 9216
    }
  }
}
layer {
  name: "fc6"
  type: "InnerProduct"
  bottom: "dummy_roi_pool_conv5"
  top: "fc6"
  param {
    lr_mult: 0
    decay_mult: 0
  }
  param {
    lr_mult: 0
    decay_mult: 0
  }
  inner_product_param {
    num_output: 4096
  }
}
layer {
  name: "relu6"
  type: "ReLU"
  bottom: "fc6"
  top: "fc6"
}
layer {
  name: "fc7"
  type: "InnerProduct"
  bottom: "fc6"
  top: "fc7"
  param {
    lr_mult: 0
    decay_mult: 0
  }
  param {
    lr_mult: 0
    decay_mult: 0
  }
  inner_product_param {
    num_output: 4096
  }
}
layer {
  name: "silence_fc7"
  type: "Silence"
  bottom: "fc7"
}
I0516 12:24:56.153862  9354 layer_factory.hpp:77] Creating layer input-data
I0516 12:24:56.154482  9354 net.cpp:115] Creating Layer input-data
I0516 12:24:56.154501  9354 net.cpp:411] input-data -> data
I0516 12:24:56.154523  9354 net.cpp:411] input-data -> im_info
I0516 12:24:56.154533  9354 net.cpp:411] input-data -> gt_boxes
RoiDataLayer: name_to_top: {'gt_boxes': 2, 'data': 0, 'im_info': 1}
I0516 12:24:56.156785  9354 net.cpp:153] Setting up input-data
I0516 12:24:56.156800  9354 net.cpp:160] Top shape: 1 3 600 1000 (1800000)
I0516 12:24:56.156813  9354 net.cpp:160] Top shape: 1 3 (3)
I0516 12:24:56.156819  9354 net.cpp:160] Top shape: 1 4 (4)
I0516 12:24:56.156824  9354 net.cpp:168] Memory required for data: 7200028
I0516 12:24:56.156833  9354 layer_factory.hpp:77] Creating layer data_input-data_0_split
I0516 12:24:56.156849  9354 net.cpp:115] Creating Layer data_input-data_0_split
I0516 12:24:56.156857  9354 net.cpp:437] data_input-data_0_split <- data
I0516 12:24:56.156864  9354 net.cpp:411] data_input-data_0_split -> data_input-data_0_split_0
I0516 12:24:56.156872  9354 net.cpp:411] data_input-data_0_split -> data_input-data_0_split_1
I0516 12:24:56.156924  9354 net.cpp:153] Setting up data_input-data_0_split
I0516 12:24:56.156937  9354 net.cpp:160] Top shape: 1 3 600 1000 (1800000)
I0516 12:24:56.156944  9354 net.cpp:160] Top shape: 1 3 600 1000 (1800000)
I0516 12:24:56.156949  9354 net.cpp:168] Memory required for data: 21600028
I0516 12:24:56.156954  9354 layer_factory.hpp:77] Creating layer conv1
I0516 12:24:56.156966  9354 net.cpp:115] Creating Layer conv1
I0516 12:24:56.156972  9354 net.cpp:437] conv1 <- data_input-data_0_split_0
I0516 12:24:56.156980  9354 net.cpp:411] conv1 -> conv1
I0516 12:24:56.160135  9354 net.cpp:153] Setting up conv1
I0516 12:24:56.160157  9354 net.cpp:160] Top shape: 1 96 300 500 (14400000)
I0516 12:24:56.160163  9354 net.cpp:168] Memory required for data: 79200028
I0516 12:24:56.160181  9354 layer_factory.hpp:77] Creating layer relu1
I0516 12:24:56.160192  9354 net.cpp:115] Creating Layer relu1
I0516 12:24:56.160198  9354 net.cpp:437] relu1 <- conv1
I0516 12:24:56.160208  9354 net.cpp:398] relu1 -> conv1 (in-place)
I0516 12:24:56.160220  9354 net.cpp:153] Setting up relu1
I0516 12:24:56.160228  9354 net.cpp:160] Top shape: 1 96 300 500 (14400000)
I0516 12:24:56.160245  9354 net.cpp:168] Memory required for data: 136800028
I0516 12:24:56.160250  9354 layer_factory.hpp:77] Creating layer norm1
I0516 12:24:56.160264  9354 net.cpp:115] Creating Layer norm1
I0516 12:24:56.160270  9354 net.cpp:437] norm1 <- conv1
I0516 12:24:56.160277  9354 net.cpp:411] norm1 -> norm1
I0516 12:24:56.160444  9354 net.cpp:153] Setting up norm1
I0516 12:24:56.160457  9354 net.cpp:160] Top shape: 1 96 300 500 (14400000)
I0516 12:24:56.160462  9354 net.cpp:168] Memory required for data: 194400028
I0516 12:24:56.160467  9354 layer_factory.hpp:77] Creating layer pool1
I0516 12:24:56.160476  9354 net.cpp:115] Creating Layer pool1
I0516 12:24:56.160481  9354 net.cpp:437] pool1 <- norm1
I0516 12:24:56.160487  9354 net.cpp:411] pool1 -> pool1
I0516 12:24:56.160539  9354 net.cpp:153] Setting up pool1
I0516 12:24:56.160550  9354 net.cpp:160] Top shape: 1 96 151 251 (3638496)
I0516 12:24:56.160555  9354 net.cpp:168] Memory required for data: 208954012
I0516 12:24:56.160560  9354 layer_factory.hpp:77] Creating layer conv2
I0516 12:24:56.160573  9354 net.cpp:115] Creating Layer conv2
I0516 12:24:56.160578  9354 net.cpp:437] conv2 <- pool1
I0516 12:24:56.160588  9354 net.cpp:411] conv2 -> conv2
I0516 12:24:56.162922  9354 net.cpp:153] Setting up conv2
I0516 12:24:56.162941  9354 net.cpp:160] Top shape: 1 256 76 126 (2451456)
I0516 12:24:56.162946  9354 net.cpp:168] Memory required for data: 218759836
I0516 12:24:56.162956  9354 layer_factory.hpp:77] Creating layer relu2
I0516 12:24:56.162968  9354 net.cpp:115] Creating Layer relu2
I0516 12:24:56.162974  9354 net.cpp:437] relu2 <- conv2
I0516 12:24:56.162981  9354 net.cpp:398] relu2 -> conv2 (in-place)
I0516 12:24:56.162989  9354 net.cpp:153] Setting up relu2
I0516 12:24:56.162995  9354 net.cpp:160] Top shape: 1 256 76 126 (2451456)
I0516 12:24:56.163000  9354 net.cpp:168] Memory required for data: 228565660
I0516 12:24:56.163005  9354 layer_factory.hpp:77] Creating layer norm2
I0516 12:24:56.163015  9354 net.cpp:115] Creating Layer norm2
I0516 12:24:56.163028  9354 net.cpp:437] norm2 <- conv2
I0516 12:24:56.163035  9354 net.cpp:411] norm2 -> norm2
I0516 12:24:56.163182  9354 net.cpp:153] Setting up norm2
I0516 12:24:56.163195  9354 net.cpp:160] Top shape: 1 256 76 126 (2451456)
I0516 12:24:56.163200  9354 net.cpp:168] Memory required for data: 238371484
I0516 12:24:56.163205  9354 layer_factory.hpp:77] Creating layer pool2
I0516 12:24:56.163213  9354 net.cpp:115] Creating Layer pool2
I0516 12:24:56.163218  9354 net.cpp:437] pool2 <- norm2
I0516 12:24:56.163225  9354 net.cpp:411] pool2 -> pool2
I0516 12:24:56.163277  9354 net.cpp:153] Setting up pool2
I0516 12:24:56.163288  9354 net.cpp:160] Top shape: 1 256 39 64 (638976)
I0516 12:24:56.163293  9354 net.cpp:168] Memory required for data: 240927388
I0516 12:24:56.163298  9354 layer_factory.hpp:77] Creating layer conv3
I0516 12:24:56.163317  9354 net.cpp:115] Creating Layer conv3
I0516 12:24:56.163324  9354 net.cpp:437] conv3 <- pool2
I0516 12:24:56.163334  9354 net.cpp:411] conv3 -> conv3
I0516 12:24:56.169124  9354 net.cpp:153] Setting up conv3
I0516 12:24:56.169155  9354 net.cpp:160] Top shape: 1 384 39 64 (958464)
I0516 12:24:56.169162  9354 net.cpp:168] Memory required for data: 244761244
I0516 12:24:56.169176  9354 layer_factory.hpp:77] Creating layer relu3
I0516 12:24:56.169190  9354 net.cpp:115] Creating Layer relu3
I0516 12:24:56.169198  9354 net.cpp:437] relu3 <- conv3
I0516 12:24:56.169205  9354 net.cpp:398] relu3 -> conv3 (in-place)
I0516 12:24:56.169216  9354 net.cpp:153] Setting up relu3
I0516 12:24:56.169222  9354 net.cpp:160] Top shape: 1 384 39 64 (958464)
I0516 12:24:56.169227  9354 net.cpp:168] Memory required for data: 248595100
I0516 12:24:56.169232  9354 layer_factory.hpp:77] Creating layer conv4
I0516 12:24:56.169245  9354 net.cpp:115] Creating Layer conv4
I0516 12:24:56.169255  9354 net.cpp:437] conv4 <- conv3
I0516 12:24:56.169262  9354 net.cpp:411] conv4 -> conv4
I0516 12:24:56.176594  9354 net.cpp:153] Setting up conv4
I0516 12:24:56.176620  9354 net.cpp:160] Top shape: 1 384 39 64 (958464)
I0516 12:24:56.176628  9354 net.cpp:168] Memory required for data: 252428956
I0516 12:24:56.176638  9354 layer_factory.hpp:77] Creating layer relu4
I0516 12:24:56.176647  9354 net.cpp:115] Creating Layer relu4
I0516 12:24:56.176653  9354 net.cpp:437] relu4 <- conv4
I0516 12:24:56.176662  9354 net.cpp:398] relu4 -> conv4 (in-place)
I0516 12:24:56.176672  9354 net.cpp:153] Setting up relu4
I0516 12:24:56.176679  9354 net.cpp:160] Top shape: 1 384 39 64 (958464)
I0516 12:24:56.176683  9354 net.cpp:168] Memory required for data: 256262812
I0516 12:24:56.176688  9354 layer_factory.hpp:77] Creating layer conv5
I0516 12:24:56.176700  9354 net.cpp:115] Creating Layer conv5
I0516 12:24:56.176707  9354 net.cpp:437] conv5 <- conv4
I0516 12:24:56.176713  9354 net.cpp:411] conv5 -> conv5
I0516 12:24:56.179805  9354 net.cpp:153] Setting up conv5
I0516 12:24:56.179831  9354 net.cpp:160] Top shape: 1 256 39 64 (638976)
I0516 12:24:56.179839  9354 net.cpp:168] Memory required for data: 258818716
I0516 12:24:56.179858  9354 layer_factory.hpp:77] Creating layer relu5
I0516 12:24:56.179877  9354 net.cpp:115] Creating Layer relu5
I0516 12:24:56.179891  9354 net.cpp:437] relu5 <- conv5
I0516 12:24:56.179903  9354 net.cpp:398] relu5 -> conv5 (in-place)
I0516 12:24:56.179920  9354 net.cpp:153] Setting up relu5
I0516 12:24:56.179936  9354 net.cpp:160] Top shape: 1 256 39 64 (638976)
I0516 12:24:56.179951  9354 net.cpp:168] Memory required for data: 261374620
I0516 12:24:56.179960  9354 layer_factory.hpp:77] Creating layer rpn_conv1
I0516 12:24:56.179998  9354 net.cpp:115] Creating Layer rpn_conv1
I0516 12:24:56.180017  9354 net.cpp:437] rpn_conv1 <- conv5
I0516 12:24:56.180033  9354 net.cpp:411] rpn_conv1 -> rpn_conv1
I0516 12:24:56.199348  9354 net.cpp:153] Setting up rpn_conv1
I0516 12:24:56.199401  9354 net.cpp:160] Top shape: 1 256 39 64 (638976)
I0516 12:24:56.199409  9354 net.cpp:168] Memory required for data: 263930524
I0516 12:24:56.199435  9354 layer_factory.hpp:77] Creating layer rpn_relu1
I0516 12:24:56.199461  9354 net.cpp:115] Creating Layer rpn_relu1
I0516 12:24:56.199475  9354 net.cpp:437] rpn_relu1 <- rpn_conv1
I0516 12:24:56.199491  9354 net.cpp:398] rpn_relu1 -> rpn_conv1 (in-place)
I0516 12:24:56.199528  9354 net.cpp:153] Setting up rpn_relu1
I0516 12:24:56.199537  9354 net.cpp:160] Top shape: 1 256 39 64 (638976)
I0516 12:24:56.199542  9354 net.cpp:168] Memory required for data: 266486428
I0516 12:24:56.199546  9354 layer_factory.hpp:77] Creating layer rpn_conv1_rpn_relu1_0_split
I0516 12:24:56.199558  9354 net.cpp:115] Creating Layer rpn_conv1_rpn_relu1_0_split
I0516 12:24:56.199563  9354 net.cpp:437] rpn_conv1_rpn_relu1_0_split <- rpn_conv1
I0516 12:24:56.199575  9354 net.cpp:411] rpn_conv1_rpn_relu1_0_split -> rpn_conv1_rpn_relu1_0_split_0
I0516 12:24:56.199589  9354 net.cpp:411] rpn_conv1_rpn_relu1_0_split -> rpn_conv1_rpn_relu1_0_split_1
I0516 12:24:56.199657  9354 net.cpp:153] Setting up rpn_conv1_rpn_relu1_0_split
I0516 12:24:56.199671  9354 net.cpp:160] Top shape: 1 256 39 64 (638976)
I0516 12:24:56.199678  9354 net.cpp:160] Top shape: 1 256 39 64 (638976)
I0516 12:24:56.199683  9354 net.cpp:168] Memory required for data: 271598236
I0516 12:24:56.199689  9354 layer_factory.hpp:77] Creating layer rpn_cls_score
I0516 12:24:56.199710  9354 net.cpp:115] Creating Layer rpn_cls_score
I0516 12:24:56.199718  9354 net.cpp:437] rpn_cls_score <- rpn_conv1_rpn_relu1_0_split_0
I0516 12:24:56.199728  9354 net.cpp:411] rpn_cls_score -> rpn_cls_score
I0516 12:24:56.200484  9354 net.cpp:153] Setting up rpn_cls_score
I0516 12:24:56.200528  9354 net.cpp:160] Top shape: 1 18 39 64 (44928)
I0516 12:24:56.200544  9354 net.cpp:168] Memory required for data: 271777948
I0516 12:24:56.200575  9354 layer_factory.hpp:77] Creating layer rpn_cls_score_rpn_cls_score_0_split
I0516 12:24:56.200647  9354 net.cpp:115] Creating Layer rpn_cls_score_rpn_cls_score_0_split
I0516 12:24:56.200661  9354 net.cpp:437] rpn_cls_score_rpn_cls_score_0_split <- rpn_cls_score
I0516 12:24:56.200672  9354 net.cpp:411] rpn_cls_score_rpn_cls_score_0_split -> rpn_cls_score_rpn_cls_score_0_split_0
I0516 12:24:56.200685  9354 net.cpp:411] rpn_cls_score_rpn_cls_score_0_split -> rpn_cls_score_rpn_cls_score_0_split_1
I0516 12:24:56.200765  9354 net.cpp:153] Setting up rpn_cls_score_rpn_cls_score_0_split
I0516 12:24:56.200786  9354 net.cpp:160] Top shape: 1 18 39 64 (44928)
I0516 12:24:56.200796  9354 net.cpp:160] Top shape: 1 18 39 64 (44928)
I0516 12:24:56.200801  9354 net.cpp:168] Memory required for data: 272137372
I0516 12:24:56.200806  9354 layer_factory.hpp:77] Creating layer rpn_bbox_pred
I0516 12:24:56.200820  9354 net.cpp:115] Creating Layer rpn_bbox_pred
I0516 12:24:56.200829  9354 net.cpp:437] rpn_bbox_pred <- rpn_conv1_rpn_relu1_0_split_1
I0516 12:24:56.200848  9354 net.cpp:411] rpn_bbox_pred -> rpn_bbox_pred
I0516 12:24:56.201495  9354 net.cpp:153] Setting up rpn_bbox_pred
I0516 12:24:56.201509  9354 net.cpp:160] Top shape: 1 36 39 64 (89856)
I0516 12:24:56.201515  9354 net.cpp:168] Memory required for data: 272496796
I0516 12:24:56.201524  9354 layer_factory.hpp:77] Creating layer rpn_cls_score_reshape
I0516 12:24:56.201540  9354 net.cpp:115] Creating Layer rpn_cls_score_reshape
I0516 12:24:56.201548  9354 net.cpp:437] rpn_cls_score_reshape <- rpn_cls_score_rpn_cls_score_0_split_0
I0516 12:24:56.201556  9354 net.cpp:411] rpn_cls_score_reshape -> rpn_cls_score_reshape
I0516 12:24:56.201612  9354 net.cpp:153] Setting up rpn_cls_score_reshape
I0516 12:24:56.201625  9354 net.cpp:160] Top shape: 1 2 351 64 (44928)
I0516 12:24:56.201630  9354 net.cpp:168] Memory required for data: 272676508
I0516 12:24:56.201635  9354 layer_factory.hpp:77] Creating layer rpn-data
I0516 12:24:56.202285  9354 net.cpp:115] Creating Layer rpn-data
I0516 12:24:56.202325  9354 net.cpp:437] rpn-data <- rpn_cls_score_rpn_cls_score_0_split_1
I0516 12:24:56.202356  9354 net.cpp:437] rpn-data <- gt_boxes
I0516 12:24:56.202371  9354 net.cpp:437] rpn-data <- im_info
I0516 12:24:56.202381  9354 net.cpp:437] rpn-data <- data_input-data_0_split_1
I0516 12:24:56.202394  9354 net.cpp:411] rpn-data -> rpn_labels
I0516 12:24:56.202409  9354 net.cpp:411] rpn-data -> rpn_bbox_targets
I0516 12:24:56.202424  9354 net.cpp:411] rpn-data -> rpn_bbox_inside_weights
I0516 12:24:56.202468  9354 net.cpp:411] rpn-data -> rpn_bbox_outside_weights
I0516 12:24:56.207044  9354 net.cpp:153] Setting up rpn-data
I0516 12:24:56.207113  9354 net.cpp:160] Top shape: 1 1 351 64 (22464)
I0516 12:24:56.207120  9354 net.cpp:160] Top shape: 1 36 39 64 (89856)
I0516 12:24:56.207126  9354 net.cpp:160] Top shape: 1 36 39 64 (89856)
I0516 12:24:56.207131  9354 net.cpp:160] Top shape: 1 36 39 64 (89856)
I0516 12:24:56.207136  9354 net.cpp:168] Memory required for data: 273844636
I0516 12:24:56.207146  9354 layer_factory.hpp:77] Creating layer rpn_loss_cls
I0516 12:24:56.207176  9354 net.cpp:115] Creating Layer rpn_loss_cls
I0516 12:24:56.207188  9354 net.cpp:437] rpn_loss_cls <- rpn_cls_score_reshape
I0516 12:24:56.207200  9354 net.cpp:437] rpn_loss_cls <- rpn_labels
I0516 12:24:56.207211  9354 net.cpp:411] rpn_loss_cls -> rpn_cls_loss
…
I0516 14:00:33.736145 10336 upgrade_proto.cpp:70] Successfully upgraded file specified using deprecated input fields.
W0516 14:00:33.736174 10336 upgrade_proto.cpp:72] Note that future Caffe releases will only support input layers and not input fields.
I0516 14:00:33.736390 10336 net.cpp:82] Initializing net from parameters: 
name: "ZF"
state {
  phase: TEST
  level: 0
}
layer {
  name: "input"
  type: "Input"
  top: "data"
  top: "im_info"
  input_param {
    shape {
      dim: 1
      dim: 3
      dim: 224
      dim: 224
    }
    shape {
      dim: 1
      dim: 3
    }
  }
}
layer {
  name: "conv1"
  type: "Convolution"
  bottom: "data"
  top: "conv1"
  convolution_param {
    num_output: 96
    pad: 3
    kernel_size: 7
    stride: 2
  }
}
layer {
  name: "relu1"
  type: "ReLU"
  bottom: "conv1"
  top: "conv1"
}
layer {
  name: "norm1"
  type: "LRN"
  bottom: "conv1"
  top: "norm1"
  lrn_param {
    local_size: 3
    alpha: 5e-05
    beta: 0.75
    norm_region: WITHIN_CHANNEL
    engine: CAFFE
  }
}
layer {
  name: "pool1"
  type: "Pooling"
  bottom: "norm1"
  top: "pool1"
  pooling_param {
    pool: MAX
    kernel_size: 3
    stride: 2
    pad: 1
  }
}
layer {
  name: "conv2"
  type: "Convolution"
  bottom: "pool1"
  top: "conv2"
  convolution_param {
    num_output: 256
    pad: 2
    kernel_size: 5
    stride: 2
  }
}
layer {
  name: "relu2"
  type: "ReLU"
  bottom: "conv2"
  top: "conv2"
}
layer {
  name: "norm2"
  type: "LRN"
  bottom: "conv2"
  top: "norm2"
  lrn_param {
    local_size: 3
    alpha: 5e-05
    beta: 0.75
    norm_region: WITHIN_CHANNEL
    engine: CAFFE
  }
}
layer {
  name: "pool2"
  type: "Pooling"
  bottom: "norm2"
  top: "pool2"
  pooling_param {
    pool: MAX
    kernel_size: 3
    stride: 2
    pad: 1
  }
}
layer {
  name: "conv3"
  type: "Convolution"
  bottom: "pool2"
  top: "conv3"
  convolution_param {
    num_output: 384
    pad: 1
    kernel_size: 3
    stride: 1
  }
}
layer {
  name: "relu3"
  type: "ReLU"
  bottom: "conv3"
  top: "conv3"
}
layer {
  name: "conv4"
  type: "Convolution"
  bottom: "conv3"
  top: "conv4"
  convolution_param {
    num_output: 384
    pad: 1
    kernel_size: 3
    stride: 1
  }
}
layer {
  name: "relu4"
  type: "ReLU"
  bottom: "conv4"
  top: "conv4"
}
layer {
  name: "conv5"
  type: "Convolution"
  bottom: "conv4"
  top: "conv5"
  convolution_param {
    num_output: 256
    pad: 1
    kernel_size: 3
    stride: 1
  }
}
layer {
  name: "relu5"
  type: "ReLU"
  bottom: "conv5"
  top: "conv5"
}
layer {
  name: "rpn_conv1"
  type: "Convolution"
  bottom: "conv5"
  top: "rpn_conv1"
  convolution_param {
    num_output: 256
    pad: 1
    kernel_size: 3
    stride: 1
  }
}
layer {
  name: "rpn_relu1"
  type: "ReLU"
  bottom: "rpn_conv1"
  top: "rpn_conv1"
}
layer {
  name: "rpn_cls_score"
  type: "Convolution"
  bottom: "rpn_conv1"
  top: "rpn_cls_score"
  convolution_param {
    num_output: 18
    pad: 0
    kernel_size: 1
    stride: 1
  }
}
layer {
  name: "rpn_bbox_pred"
  type: "Convolution"
  bottom: "rpn_conv1"
  top: "rpn_bbox_pred"
  convolution_param {
    num_output: 36
    pad: 0
    kernel_size: 1
    stride: 1
  }
}
layer {
  name: "rpn_cls_score_reshape"
  type: "Reshape"
  bottom: "rpn_cls_score"
  top: "rpn_cls_score_reshape"
  reshape_param {
    shape {
      dim: 0
      dim: 2
      dim: -1
      dim: 0
    }
  }
}
layer {
  name: "rpn_cls_prob"
  type: "Softmax"
  bottom: "rpn_cls_score_reshape"
  top: "rpn_cls_prob"
}
layer {
  name: "rpn_cls_prob_reshape"
  type: "Reshape"
  bottom: "rpn_cls_prob"
  top: "rpn_cls_prob_reshape"
  reshape_param {
    shape {
      dim: 0
      dim: 18
      dim: -1
      dim: 0
    }
  }
}
layer {
  name: "proposal"
  type: "Python"
  bottom: "rpn_cls_prob_reshape"
  bottom: "rpn_bbox_pred"
  bottom: "im_info"
  top: "rois"
  top: "scores"
  python_param {
    module: "rpn.proposal_layer"
    layer: "ProposalLayer"
    param_str: "\'feat_stride\': 16"
  }
}
I0516 14:00:33.736542 10336 layer_factory.hpp:77] Creating layer input
I0516 14:00:33.736578 10336 net.cpp:115] Creating Layer input
I0516 14:00:33.736620 10336 net.cpp:411] input -> data
I0516 14:00:33.736660 10336 net.cpp:411] input -> im_info
I0516 14:00:33.799058 10336 net.cpp:153] Setting up input
I0516 14:00:33.799146 10336 net.cpp:160] Top shape: 1 3 224 224 (150528)
I0516 14:00:33.799167 10336 net.cpp:160] Top shape: 1 3 (3)
I0516 14:00:33.799176 10336 net.cpp:168] Memory required for data: 602124
I0516 14:00:33.799192 10336 layer_factory.hpp:77] Creating layer conv1
I0516 14:00:33.799265 10336 net.cpp:115] Creating Layer conv1
I0516 14:00:33.799279 10336 net.cpp:437] conv1 <- data
I0516 14:00:33.799299 10336 net.cpp:411] conv1 -> conv1
I0516 14:00:33.801506 10336 net.cpp:153] Setting up conv1
I0516 14:00:33.801558 10336 net.cpp:160] Top shape: 1 96 112 112 (1204224)
I0516 14:00:33.801569 10336 net.cpp:168] Memory required for data: 5419020
I0516 14:00:33.801602 10336 layer_factory.hpp:77] Creating layer relu1
I0516 14:00:33.801676 10336 net.cpp:115] Creating Layer relu1
I0516 14:00:33.801693 10336 net.cpp:437] relu1 <- conv1
I0516 14:00:33.801710 10336 net.cpp:398] relu1 -> conv1 (in-place)
I0516 14:00:33.801756 10336 net.cpp:153] Setting up relu1
I0516 14:00:33.801777 10336 net.cpp:160] Top shape: 1 96 112 112 (1204224)
I0516 14:00:33.801789 10336 net.cpp:168] Memory required for data: 10235916
I0516 14:00:33.801801 10336 layer_factory.hpp:77] Creating layer norm1
I0516 14:00:33.801867 10336 net.cpp:115] Creating Layer norm1
I0516 14:00:33.801892 10336 net.cpp:437] norm1 <- conv1
I0516 14:00:33.801913 10336 net.cpp:411] norm1 -> norm1
I0516 14:00:33.802126 10336 net.cpp:153] Setting up norm1
I0516 14:00:33.802144 10336 net.cpp:160] Top shape: 1 96 112 112 (1204224)
I0516 14:00:33.802153 10336 net.cpp:168] Memory required for data: 15052812
I0516 14:00:33.802178 10336 layer_factory.hpp:77] Creating layer pool1
I0516 14:00:33.802208 10336 net.cpp:115] Creating Layer pool1
I0516 14:00:33.802222 10336 net.cpp:437] pool1 <- norm1
I0516 14:00:33.802235 10336 net.cpp:411] pool1 -> pool1
I0516 14:00:33.802335 10336 net.cpp:153] Setting up pool1
I0516 14:00:33.802367 10336 net.cpp:160] Top shape: 1 96 57 57 (311904)
I0516 14:00:33.802381 10336 net.cpp:168] Memory required for data: 16300428
I0516 14:00:33.802395 10336 layer_factory.hpp:77] Creating layer conv2
I0516 14:00:33.802433 10336 net.cpp:115] Creating Layer conv2
I0516 14:00:33.802448 10336 net.cpp:437] conv2 <- pool1
I0516 14:00:33.802466 10336 net.cpp:411] conv2 -> conv2
I0516 14:00:33.806603 10336 net.cpp:153] Setting up conv2
I0516 14:00:33.806630 10336 net.cpp:160] Top shape: 1 256 29 29 (215296)
I0516 14:00:33.806638 10336 net.cpp:168] Memory required for data: 17161612
I0516 14:00:33.806660 10336 layer_factory.hpp:77] Creating layer relu2
I0516 14:00:33.806684 10336 net.cpp:115] Creating Layer relu2
I0516 14:00:33.806696 10336 net.cpp:437] relu2 <- conv2
I0516 14:00:33.806712 10336 net.cpp:398] relu2 -> conv2 (in-place)
I0516 14:00:33.806731 10336 net.cpp:153] Setting up relu2
I0516 14:00:33.806747 10336 net.cpp:160] Top shape: 1 256 29 29 (215296)
I0516 14:00:33.806757 10336 net.cpp:168] Memory required for data: 18022796
I0516 14:00:33.806768 10336 layer_factory.hpp:77] Creating layer norm2
I0516 14:00:33.806789 10336 net.cpp:115] Creating Layer norm2
I0516 14:00:33.806802 10336 net.cpp:437] norm2 <- conv2
I0516 14:00:33.806818 10336 net.cpp:411] norm2 -> norm2
I0516 14:00:33.806990 10336 net.cpp:153] Setting up norm2
I0516 14:00:33.807006 10336 net.cpp:160] Top shape: 1 256 29 29 (215296)
I0516 14:00:33.807016 10336 net.cpp:168] Memory required for data: 18883980
I0516 14:00:33.807026 10336 layer_factory.hpp:77] Creating layer pool2
I0516 14:00:33.807044 10336 net.cpp:115] Creating Layer pool2
I0516 14:00:33.807056 10336 net.cpp:437] pool2 <- norm2
I0516 14:00:33.807071 10336 net.cpp:411] pool2 -> pool2
I0516 14:00:33.807140 10336 net.cpp:153] Setting up pool2
I0516 14:00:33.807157 10336 net.cpp:160] Top shape: 1 256 15 15 (57600)
I0516 14:00:33.807166 10336 net.cpp:168] Memory required for data: 19114380
I0516 14:00:33.807178 10336 layer_factory.hpp:77] Creating layer conv3
I0516 14:00:33.807199 10336 net.cpp:115] Creating Layer conv3
I0516 14:00:33.807214 10336 net.cpp:437] conv3 <- pool2
I0516 14:00:33.807237 10336 net.cpp:411] conv3 -> conv3
I0516 14:00:33.810580 10336 net.cpp:153] Setting up conv3
I0516 14:00:33.810600 10336 net.cpp:160] Top shape: 1 384 15 15 (86400)
I0516 14:00:33.810608 10336 net.cpp:168] Memory required for data: 19459980
I0516 14:00:33.810629 10336 layer_factory.hpp:77] Creating layer relu3
I0516 14:00:33.810647 10336 net.cpp:115] Creating Layer relu3
I0516 14:00:33.810658 10336 net.cpp:437] relu3 <- conv3
I0516 14:00:33.810677 10336 net.cpp:398] relu3 -> conv3 (in-place)
I0516 14:00:33.810693 10336 net.cpp:153] Setting up relu3
I0516 14:00:33.810708 10336 net.cpp:160] Top shape: 1 384 15 15 (86400)
I0516 14:00:33.810720 10336 net.cpp:168] Memory required for data: 19805580
I0516 14:00:33.810730 10336 layer_factory.hpp:77] Creating layer conv4
I0516 14:00:33.810747 10336 net.cpp:115] Creating Layer conv4
I0516 14:00:33.810760 10336 net.cpp:437] conv4 <- conv3
I0516 14:00:33.810778 10336 net.cpp:411] conv4 -> conv4
I0516 14:00:33.815137 10336 net.cpp:153] Setting up conv4
I0516 14:00:33.815162 10336 net.cpp:160] Top shape: 1 384 15 15 (86400)
I0516 14:00:33.815171 10336 net.cpp:168] Memory required for data: 20151180
I0516 14:00:33.815196 10336 layer_factory.hpp:77] Creating layer relu4
I0516 14:00:33.815217 10336 net.cpp:115] Creating Layer relu4
I0516 14:00:33.815229 10336 net.cpp:437] relu4 <- conv4
I0516 14:00:33.815243 10336 net.cpp:398] relu4 -> conv4 (in-place)
I0516 14:00:33.815260 10336 net.cpp:153] Setting up relu4
I0516 14:00:33.815275 10336 net.cpp:160] Top shape: 1 384 15 15 (86400)
I0516 14:00:33.815285 10336 net.cpp:168] Memory required for data: 20496780
I0516 14:00:33.815296 10336 layer_factory.hpp:77] Creating layer conv5
I0516 14:00:33.815325 10336 net.cpp:115] Creating Layer conv5
I0516 14:00:33.815340 10336 net.cpp:437] conv5 <- conv4
I0516 14:00:33.815356 10336 net.cpp:411] conv5 -> conv5
I0516 14:00:33.818614 10336 net.cpp:153] Setting up conv5
I0516 14:00:33.818634 10336 net.cpp:160] Top shape: 1 256 15 15 (57600)
I0516 14:00:33.818642 10336 net.cpp:168] Memory required for data: 20727180
I0516 14:00:33.818663 10336 layer_factory.hpp:77] Creating layer relu5
I0516 14:00:33.818680 10336 net.cpp:115] Creating Layer relu5
I0516 14:00:33.818691 10336 net.cpp:437] relu5 <- conv5
I0516 14:00:33.818709 10336 net.cpp:398] relu5 -> conv5 (in-place)
I0516 14:00:33.818727 10336 net.cpp:153] Setting up relu5
I0516 14:00:33.818742 10336 net.cpp:160] Top shape: 1 256 15 15 (57600)
I0516 14:00:33.818753 10336 net.cpp:168] Memory required for data: 20957580
I0516 14:00:33.818764 10336 layer_factory.hpp:77] Creating layer rpn_conv1
I0516 14:00:33.818786 10336 net.cpp:115] Creating Layer rpn_conv1
I0516 14:00:33.818799 10336 net.cpp:437] rpn_conv1 <- conv5
I0516 14:00:33.818814 10336 net.cpp:411] rpn_conv1 -> rpn_conv1
I0516 14:00:33.821252 10336 net.cpp:153] Setting up rpn_conv1
I0516 14:00:33.821274 10336 net.cpp:160] Top shape: 1 256 15 15 (57600)
I0516 14:00:33.821283 10336 net.cpp:168] Memory required for data: 21187980
I0516 14:00:33.821301 10336 layer_factory.hpp:77] Creating layer rpn_relu1
I0516 14:00:33.821321 10336 net.cpp:115] Creating Layer rpn_relu1
I0516 14:00:33.821333 10336 net.cpp:437] rpn_relu1 <- rpn_conv1
I0516 14:00:33.821347 10336 net.cpp:398] rpn_relu1 -> rpn_conv1 (in-place)
I0516 14:00:33.821363 10336 net.cpp:153] Setting up rpn_relu1
I0516 14:00:33.821378 10336 net.cpp:160] Top shape: 1 256 15 15 (57600)
I0516 14:00:33.821389 10336 net.cpp:168] Memory required for data: 21418380
I0516 14:00:33.821399 10336 layer_factory.hpp:77] Creating layer rpn_conv1_rpn_relu1_0_split
I0516 14:00:33.821421 10336 net.cpp:115] Creating Layer rpn_conv1_rpn_relu1_0_split
I0516 14:00:33.821434 10336 net.cpp:437] rpn_conv1_rpn_relu1_0_split <- rpn_conv1
I0516 14:00:33.821455 10336 net.cpp:411] rpn_conv1_rpn_relu1_0_split -> rpn_conv1_rpn_relu1_0_split_0
I0516 14:00:33.821475 10336 net.cpp:411] rpn_conv1_rpn_relu1_0_split -> rpn_conv1_rpn_relu1_0_split_1
I0516 14:00:33.821554 10336 net.cpp:153] Setting up rpn_conv1_rpn_relu1_0_split
I0516 14:00:33.821569 10336 net.cpp:160] Top shape: 1 256 15 15 (57600)
I0516 14:00:33.821581 10336 net.cpp:160] Top shape: 1 256 15 15 (57600)
I0516 14:00:33.821593 10336 net.cpp:168] Memory required for data: 21879180
I0516 14:00:33.821604 10336 layer_factory.hpp:77] Creating layer rpn_cls_score
I0516 14:00:33.821625 10336 net.cpp:115] Creating Layer rpn_cls_score
I0516 14:00:33.821638 10336 net.cpp:437] rpn_cls_score <- rpn_conv1_rpn_relu1_0_split_0
I0516 14:00:33.821653 10336 net.cpp:411] rpn_cls_score -> rpn_cls_score
I0516 14:00:33.822054 10336 net.cpp:153] Setting up rpn_cls_score
I0516 14:00:33.822069 10336 net.cpp:160] Top shape: 1 18 15 15 (4050)
I0516 14:00:33.822080 10336 net.cpp:168] Memory required for data: 21895380
I0516 14:00:33.822098 10336 layer_factory.hpp:77] Creating layer rpn_bbox_pred
I0516 14:00:33.822119 10336 net.cpp:115] Creating Layer rpn_bbox_pred
I0516 14:00:33.822130 10336 net.cpp:437] rpn_bbox_pred <- rpn_conv1_rpn_relu1_0_split_1
I0516 14:00:33.822149 10336 net.cpp:411] rpn_bbox_pred -> rpn_bbox_pred
I0516 14:00:33.822551 10336 net.cpp:153] Setting up rpn_bbox_pred
I0516 14:00:33.822567 10336 net.cpp:160] Top shape: 1 36 15 15 (8100)
I0516 14:00:33.822577 10336 net.cpp:168] Memory required for data: 21927780
I0516 14:00:33.822594 10336 layer_factory.hpp:77] Creating layer rpn_cls_score_reshape
I0516 14:00:33.822620 10336 net.cpp:115] Creating Layer rpn_cls_score_reshape
I0516 14:00:33.822631 10336 net.cpp:437] rpn_cls_score_reshape <- rpn_cls_score
I0516 14:00:33.822649 10336 net.cpp:411] rpn_cls_score_reshape -> rpn_cls_score_reshape
I0516 14:00:33.822716 10336 net.cpp:153] Setting up rpn_cls_score_reshape
I0516 14:00:33.822733 10336 net.cpp:160] Top shape: 1 2 135 15 (4050)
I0516 14:00:33.822743 10336 net.cpp:168] Memory required for data: 21943980
I0516 14:00:33.822754 10336 layer_factory.hpp:77] Creating layer rpn_cls_prob
I0516 14:00:33.822770 10336 net.cpp:115] Creating Layer rpn_cls_prob
I0516 14:00:33.822788 10336 net.cpp:437] rpn_cls_prob <- rpn_cls_score_reshape
I0516 14:00:33.822804 10336 net.cpp:411] rpn_cls_prob -> rpn_cls_prob
I0516 14:00:33.822927 10336 net.cpp:153] Setting up rpn_cls_prob
I0516 14:00:33.822943 10336 net.cpp:160] Top shape: 1 2 135 15 (4050)
I0516 14:00:33.822953 10336 net.cpp:168] Memory required for data: 21960180
I0516 14:00:33.822964 10336 layer_factory.hpp:77] Creating layer rpn_cls_prob_reshape
I0516 14:00:33.822979 10336 net.cpp:115] Creating Layer rpn_cls_prob_reshape
I0516 14:00:33.822991 10336 net.cpp:437] rpn_cls_prob_reshape <- rpn_cls_prob
I0516 14:00:33.823010 10336 net.cpp:411] rpn_cls_prob_reshape -> rpn_cls_prob_reshape
I0516 14:00:33.823066 10336 net.cpp:153] Setting up rpn_cls_prob_reshape
I0516 14:00:33.823082 10336 net.cpp:160] Top shape: 1 18 15 15 (4050)
I0516 14:00:33.823092 10336 net.cpp:168] Memory required for data: 21976380
I0516 14:00:33.823102 10336 layer_factory.hpp:77] Creating layer proposal
I0516 14:00:33.844969 10336 net.cpp:115] Creating Layer proposal
I0516 14:00:33.845002 10336 net.cpp:437] proposal <- rpn_cls_prob_reshape
I0516 14:00:33.845013 10336 net.cpp:437] proposal <- rpn_bbox_pred
I0516 14:00:33.845019 10336 net.cpp:437] proposal <- im_info
I0516 14:00:33.845031 10336 net.cpp:411] proposal -> rois
I0516 14:00:33.845052 10336 net.cpp:411] proposal -> scores
I0516 14:00:33.847041 10336 net.cpp:153] Setting up proposal
I0516 14:00:33.847061 10336 net.cpp:160] Top shape: 1 5 (5)
I0516 14:00:33.847069 10336 net.cpp:160] Top shape: 1 1 1 1 (1)
I0516 14:00:33.847074 10336 net.cpp:168] Memory required for data: 21976404
I0516 14:00:33.847081 10336 net.cpp:231] proposal does not need backward computation.
I0516 14:00:33.847096 10336 net.cpp:231] rpn_cls_prob_reshape does not need backward computation.
I0516 14:00:33.847101 10336 net.cpp:231] rpn_cls_prob does not need backward computation.
I0516 14:00:33.847107 10336 net.cpp:231] rpn_cls_score_reshape does not need backward computation.
…
average_loss: 100
I0516 14:04:17.827405 10419 solver.cpp:131] Creating training net from train_net file: models/pascal_voc/ZF/faster_rcnn_alt_opt/stage1_fast_rcnn_train.pt
I0516 14:04:17.828178 10419 net.cpp:82] Initializing net from parameters: 
name: "ZF"
state {
  phase: TRAIN
}
layer {
  name: "data"
  type: "Python"
  top: "data"
  top: "rois"
  top: "labels"
  top: "bbox_targets"
  top: "bbox_inside_weights"
  top: "bbox_outside_weights"
  python_param {
    module: "roi_data_layer.layer"
    layer: "RoIDataLayer"
    param_str: "\'num_classes\': 2"
  }
}
layer {
  name: "conv1"
  type: "Convolution"
  bottom: "data"
  top: "conv1"
  param {
    lr_mult: 1
  }
  param {
    lr_mult: 2
  }
  convolution_param {
    num_output: 96
    pad: 3
    kernel_size: 7
    stride: 2
  }
}
layer {
  name: "relu1"
  type: "ReLU"
  bottom: "conv1"
  top: "conv1"
}
layer {
  name: "norm1"
  type: "LRN"
  bottom: "conv1"
  top: "norm1"
  lrn_param {
    local_size: 3
    alpha: 5e-05
    beta: 0.75
    norm_region: WITHIN_CHANNEL
    engine: CAFFE
  }
}
layer {
  name: "pool1"
  type: "Pooling"
  bottom: "norm1"
  top: "pool1"
  pooling_param {
    pool: MAX
    kernel_size: 3
    stride: 2
    pad: 1
  }
}
layer {
  name: "conv2"
  type: "Convolution"
  bottom: "pool1"
  top: "conv2"
  param {
    lr_mult: 1
  }
  param {
    lr_mult: 2
  }
  convolution_param {
    num_output: 256
    pad: 2
    kernel_size: 5
    stride: 2
  }
}
layer {
  name: "relu2"
  type: "ReLU"
  bottom: "conv2"
  top: "conv2"
}
layer {
  name: "norm2"
  type: "LRN"
  bottom: "conv2"
  top: "norm2"
  lrn_param {
    local_size: 3
    alpha: 5e-05
    beta: 0.75
    norm_region: WITHIN_CHANNEL
    engine: CAFFE
  }
}
layer {
  name: "pool2"
  type: "Pooling"
  bottom: "norm2"
  top: "pool2"
  pooling_param {
    pool: MAX
    kernel_size: 3
    stride: 2
    pad: 1
  }
}
layer {
  name: "conv3"
  type: "Convolution"
  bottom: "pool2"
  top: "conv3"
  param {
    lr_mult: 1
  }
  param {
    lr_mult: 2
  }
  convolution_param {
    num_output: 384
    pad: 1
    kernel_size: 3
    stride: 1
  }
}
layer {
  name: "relu3"
  type: "ReLU"
  bottom: "conv3"
  top: "conv3"
}
layer {
  name: "conv4"
  type: "Convolution"
  bottom: "conv3"
  top: "conv4"
  param {
    lr_mult: 1
  }
  param {
    lr_mult: 2
  }
  convolution_param {
    num_output: 384
    pad: 1
    kernel_size: 3
    stride: 1
  }
}
layer {
  name: "relu4"
  type: "ReLU"
  bottom: "conv4"
  top: "conv4"
}
layer {
  name: "conv5"
  type: "Convolution"
  bottom: "conv4"
  top: "conv5"
  param {
    lr_mult: 1
  }
  param {
    lr_mult: 2
  }
  convolution_param {
    num_output: 256
    pad: 1
    kernel_size: 3
    stride: 1
  }
}
layer {
  name: "relu5"
  type: "ReLU"
  bottom: "conv5"
  top: "conv5"
}
layer {
  name: "roi_pool_conv5"
  type: "ROIPooling"
  bottom: "conv5"
  bottom: "rois"
  top: "roi_pool_conv5"
  roi_pooling_param {
    pooled_h: 6
    pooled_w: 6
    spatial_scale: 0.0625
  }
}
layer {
  name: "fc6"
  type: "InnerProduct"
  bottom: "roi_pool_conv5"
  top: "fc6"
  param {
    lr_mult: 1
  }
  param {
    lr_mult: 2
  }
  inner_product_param {
    num_output: 4096
  }
}
layer {
  name: "relu6"
  type: "ReLU"
  bottom: "fc6"
  top: "fc6"
}
layer {
  name: "drop6"
  type: "Dropout"
  bottom: "fc6"
  top: "fc6"
  dropout_param {
    dropout_ratio: 0.5
    scale_train: false
  }
}
layer {
  name: "fc7"
  type: "InnerProduct"
  bottom: "fc6"
  top: "fc7"
  param {
    lr_mult: 1
  }
  param {
    lr_mult: 2
  }
  inner_product_param {
    num_output: 4096
  }
}
layer {
  name: "relu7"
  type: "ReLU"
  bottom: "fc7"
  top: "fc7"
}
layer {
  name: "drop7"
  type: "Dropout"
  bottom: "fc7"
  top: "fc7"
  dropout_param {
    dropout_ratio: 0.5
    scale_train: false
  }
}
layer {
  name: "cls_score"
  type: "InnerProduct"
  bottom: "fc7"
  top: "cls_score"
  param {
    lr_mult: 1
  }
  param {
    lr_mult: 2
  }
  inner_product_param {
    num_output: 2
    weight_filler {
      type: "gaussian"
      std: 0.01
    }
    bias_filler {
      type: "constant"
      value: 0
    }
  }
}
layer {
  name: "bbox_pred"
  type: "InnerProduct"
  bottom: "fc7"
  top: "bbox_pred"
  param {
    lr_mult: 1
  }
  param {
    lr_mult: 2
  }
  inner_product_param {
    num_output: 8
    weight_filler {
      type: "gaussian"
      std: 0.001
    }
    bias_filler {
      type: "constant"
      value: 0
    }
  }
}
layer {
  name: "loss_cls"
  type: "SoftmaxWithLoss"
  bottom: "cls_score"
  bottom: "labels"
  top: "cls_loss"
  loss_weight: 1
  propagate_down: true
  propagate_down: false
  loss_param {
    ignore_label: -1
    normalize: true
  }
}
layer {
  name: "loss_bbox"
  type: "SmoothL1Loss"
  bottom: "bbox_pred"
  bottom: "bbox_targets"
  bottom: "bbox_inside_weights"
  bottom: "bbox_outside_weights"
  top: "bbox_loss"
  loss_weight: 1
}
layer {
  name: "rpn_conv1"
  type: "Convolution"
  bottom: "conv5"
  top: "rpn_conv1"
  param {
    lr_mult: 0
    decay_mult: 0
  }
  param {
    lr_mult: 0
    decay_mult: 0
  }
  convolution_param {
    num_output: 256
    pad: 1
    kernel_size: 3
    stride: 1
    weight_filler {
      type: "gaussian"
      std: 0.01
    }
    bias_filler {
      type: "constant"
      value: 0
    }
  }
}
layer {
  name: "rpn_relu1"
  type: "ReLU"
  bottom: "rpn_conv1"
  top: "rpn_conv1"
}
layer {
  name: "rpn_cls_score"
  type: "Convolution"
  bottom: "rpn_conv1"
  top: "rpn_cls_score"
  param {
    lr_mult: 0
    decay_mult: 0
  }
  param {
    lr_mult: 0
    decay_mult: 0
  }
  convolution_param {
    num_output: 18
    pad: 0
    kernel_size: 1
    stride: 1
    weight_filler {
      type: "gaussian"
      std: 0.01
    }
    bias_filler {
      type: "constant"
      value: 0
    }
  }
}
layer {
  name: "rpn_bbox_pred"
  type: "Convolution"
  bottom: "rpn_conv1"
  top: "rpn_bbox_pred"
  param {
    lr_mult: 0
    decay_mult: 0
  }
  param {
    lr_mult: 0
    decay_mult: 0
  }
  convolution_param {
    num_output: 36
    pad: 0
    kernel_size: 1
    stride: 1
    weight_filler {
      type: "gaussian"
      std: 0.01
    }
    bias_filler {
      type: "constant"
      value: 0
    }
  }
}
layer {
  name: "silence_rpn_cls_score"
  type: "Silence"
  bottom: "rpn_cls_score"
}
layer {
  name: "silence_rpn_bbox_pred"
  type: "Silence"
  bottom: "rpn_bbox_pred"
}
I0516 14:04:17.828363 10419 layer_factory.hpp:77] Creating layer data
I0516 14:04:17.829166 10419 net.cpp:115] Creating Layer data
I0516 14:04:17.829191 10419 net.cpp:411] data -> data
I0516 14:04:17.829227 10419 net.cpp:411] data -> rois
I0516 14:04:17.829246 10419 net.cpp:411] data -> labels
I0516 14:04:17.829268 10419 net.cpp:411] data -> bbox_targets
I0516 14:04:17.829286 10419 net.cpp:411] data -> bbox_inside_weights
I0516 14:04:17.829308 10419 net.cpp:411] data -> bbox_outside_weights
RoiDataLayer: name_to_top: {'bbox_inside_weights': 4, 'labels': 2, 'rois': 1, 'bbox_targets': 3, 'bbox_outside_weights': 5, 'data': 0}
I0516 14:04:17.831930 10419 net.cpp:153] Setting up data
I0516 14:04:17.831954 10419 net.cpp:160] Top shape: 2 3 600 1000 (3600000)
I0516 14:04:17.831966 10419 net.cpp:160] Top shape: 1 5 (5)
I0516 14:04:17.831979 10419 net.cpp:160] Top shape: 1 (1)
I0516 14:04:17.831989 10419 net.cpp:160] Top shape: 1 8 (8)
I0516 14:04:17.832000 10419 net.cpp:160] Top shape: 1 8 (8)
I0516 14:04:17.832010 10419 net.cpp:160] Top shape: 1 8 (8)
I0516 14:04:17.832018 10419 net.cpp:168] Memory required for data: 14400120
I0516 14:04:17.832027 10419 layer_factory.hpp:77] Creating layer conv1
I0516 14:04:17.832048 10419 net.cpp:115] Creating Layer conv1
I0516 14:04:17.832059 10419 net.cpp:437] conv1 <- data
I0516 14:04:17.832072 10419 net.cpp:411] conv1 -> conv1
I0516 14:04:17.836416 10419 net.cpp:153] Setting up conv1
I0516 14:04:17.836503 10419 net.cpp:160] Top shape: 2 96 300 500 (28800000)
I0516 14:04:17.836532 10419 net.cpp:168] Memory required for data: 129600120
I0516 14:04:17.836621 10419 layer_factory.hpp:77] Creating layer relu1
I0516 14:04:17.836661 10419 net.cpp:115] Creating Layer relu1
I0516 14:04:17.836676 10419 net.cpp:437] relu1 <- conv1
I0516 14:04:17.836688 10419 net.cpp:398] relu1 -> conv1 (in-place)
I0516 14:04:17.836702 10419 net.cpp:153] Setting up relu1
I0516 14:04:17.836710 10419 net.cpp:160] Top shape: 2 96 300 500 (28800000)
I0516 14:04:17.836717 10419 net.cpp:168] Memory required for data: 244800120
I0516 14:04:17.836722 10419 layer_factory.hpp:77] Creating layer norm1
I0516 14:04:17.836735 10419 net.cpp:115] Creating Layer norm1
I0516 14:04:17.836742 10419 net.cpp:437] norm1 <- conv1
I0516 14:04:17.836750 10419 net.cpp:411] norm1 -> norm1
I0516 14:04:17.836925 10419 net.cpp:153] Setting up norm1
I0516 14:04:17.836940 10419 net.cpp:160] Top shape: 2 96 300 500 (28800000)
I0516 14:04:17.836946 10419 net.cpp:168] Memory required for data: 360000120
I0516 14:04:17.836951 10419 layer_factory.hpp:77] Creating layer pool1
I0516 14:04:17.836962 10419 net.cpp:115] Creating Layer pool1
I0516 14:04:17.836968 10419 net.cpp:437] pool1 <- norm1
I0516 14:04:17.836977 10419 net.cpp:411] pool1 -> pool1
I0516 14:04:17.837033 10419 net.cpp:153] Setting up pool1
I0516 14:04:17.837045 10419 net.cpp:160] Top shape: 2 96 151 251 (7276992)
I0516 14:04:17.837052 10419 net.cpp:168] Memory required for data: 389108088
I0516 14:04:17.837059 10419 layer_factory.hpp:77] Creating layer conv2
I0516 14:04:17.837072 10419 net.cpp:115] Creating Layer conv2
I0516 14:04:17.837079 10419 net.cpp:437] conv2 <- pool1
I0516 14:04:17.837087 10419 net.cpp:411] conv2 -> conv2
I0516 14:04:17.839495 10419 net.cpp:153] Setting up conv2
I0516 14:04:17.839514 10419 net.cpp:160] Top shape: 2 256 76 126 (4902912)
I0516 14:04:17.839519 10419 net.cpp:168] Memory required for data: 408719736
I0516 14:04:17.839529 10419 layer_factory.hpp:77] Creating layer relu2
I0516 14:04:17.839540 10419 net.cpp:115] Creating Layer relu2
I0516 14:04:17.839547 10419 net.cpp:437] relu2 <- conv2
I0516 14:04:17.839555 10419 net.cpp:398] relu2 -> conv2 (in-place)
I0516 14:04:17.839565 10419 net.cpp:153] Setting up relu2
I0516 14:04:17.839571 10419 net.cpp:160] Top shape: 2 256 76 126 (4902912)
I0516 14:04:17.839577 10419 net.cpp:168] Memory required for data: 428331384
I0516 14:04:17.839582 10419 layer_factory.hpp:77] Creating layer norm2
I0516 14:04:17.839591 10419 net.cpp:115] Creating Layer norm2
I0516 14:04:17.839598 10419 net.cpp:437] norm2 <- conv2
I0516 14:04:17.839606 10419 net.cpp:411] norm2 -> norm2
I0516 14:04:17.839740 10419 net.cpp:153] Setting up norm2
I0516 14:04:17.839754 10419 net.cpp:160] Top shape: 2 256 76 126 (4902912)
I0516 14:04:17.839759 10419 net.cpp:168] Memory required for data: 447943032
I0516 14:04:17.839764 10419 layer_factory.hpp:77] Creating layer pool2
I0516 14:04:17.839774 10419 net.cpp:115] Creating Layer pool2
I0516 14:04:17.839781 10419 net.cpp:437] pool2 <- norm2
I0516 14:04:17.839789 10419 net.cpp:411] pool2 -> pool2
I0516 14:04:17.839844 10419 net.cpp:153] Setting up pool2
I0516 14:04:17.839856 10419 net.cpp:160] Top shape: 2 256 39 64 (1277952)
I0516 14:04:17.839862 10419 net.cpp:168] Memory required for data: 453054840
I0516 14:04:17.839869 10419 layer_factory.hpp:77] Creating layer conv3
I0516 14:04:17.839879 10419 net.cpp:115] Creating Layer conv3
I0516 14:04:17.839886 10419 net.cpp:437] conv3 <- pool2
I0516 14:04:17.839895 10419 net.cpp:411] conv3 -> conv3
I0516 14:04:17.852608 10419 net.cpp:153] Setting up conv3
I0516 14:04:17.852824 10419 net.cpp:160] Top shape: 2 384 39 64 (1916928)
I0516 14:04:17.852854 10419 net.cpp:168] Memory required for data: 460722552
I0516 14:04:17.852921 10419 layer_factory.hpp:77] Creating layer relu3
I0516 14:04:17.853025 10419 net.cpp:115] Creating Layer relu3
I0516 14:04:17.853061 10419 net.cpp:437] relu3 <- conv3
I0516 14:04:17.853091 10419 net.cpp:398] relu3 -> conv3 (in-place)
I0516 14:04:17.853129 10419 net.cpp:153] Setting up relu3
I0516 14:04:17.853166 10419 net.cpp:160] Top shape: 2 384 39 64 (1916928)
I0516 14:04:17.853194 10419 net.cpp:168] Memory required for data: 468390264
I0516 14:04:17.853210 10419 layer_factory.hpp:77] Creating layer conv4
I0516 14:04:17.853241 10419 net.cpp:115] Creating Layer conv4
I0516 14:04:17.853255 10419 net.cpp:437] conv4 <- conv3
I0516 14:04:17.853272 10419 net.cpp:411] conv4 -> conv4
I0516 14:04:17.866497 10419 net.cpp:153] Setting up conv4
I0516 14:04:17.866556 10419 net.cpp:160] Top shape: 2 384 39 64 (1916928)
I0516 14:04:17.866564 10419 net.cpp:168] Memory required for data: 476057976
I0516 14:04:17.866580 10419 layer_factory.hpp:77] Creating layer relu4
I0516 14:04:17.866595 10419 net.cpp:115] Creating Layer relu4
I0516 14:04:17.866603 10419 net.cpp:437] relu4 <- conv4
I0516 14:04:17.866613 10419 net.cpp:398] relu4 -> conv4 (in-place)
I0516 14:04:17.866626 10419 net.cpp:153] Setting up relu4
I0516 14:04:17.866633 10419 net.cpp:160] Top shape: 2 384 39 64 (1916928)
I0516 14:04:17.866638 10419 net.cpp:168] Memory required for data: 483725688
I0516 14:04:17.866643 10419 layer_factory.hpp:77] Creating layer conv5
I0516 14:04:17.866660 10419 net.cpp:115] Creating Layer conv5
I0516 14:04:17.866665 10419 net.cpp:437] conv5 <- conv4
I0516 14:04:17.866675 10419 net.cpp:411] conv5 -> conv5
I0516 14:04:17.872097 10419 net.cpp:153] Setting up conv5
I0516 14:04:17.872246 10419 net.cpp:160] Top shape: 2 256 39 64 (1277952)
I0516 14:04:17.872284 10419 net.cpp:168] Memory required for data: 488837496
I0516 14:04:17.872364 10419 layer_factory.hpp:77] Creating layer relu5
I0516 14:04:17.872416 10419 net.cpp:115] Creating Layer relu5
I0516 14:04:17.872428 10419 net.cpp:437] relu5 <- conv5
I0516 14:04:17.872442 10419 net.cpp:398] relu5 -> conv5 (in-place)
I0516 14:04:17.872464 10419 net.cpp:153] Setting up relu5
I0516 14:04:17.872480 10419 net.cpp:160] Top shape: 2 256 39 64 (1277952)
I0516 14:04:17.872488 10419 net.cpp:168] Memory required for data: 493949304
I0516 14:04:17.872498 10419 layer_factory.hpp:77] Creating layer conv5_relu5_0_split
I0516 14:04:17.872539 10419 net.cpp:115] Creating Layer conv5_relu5_0_split
I0516 14:04:17.872567 10419 net.cpp:437] conv5_relu5_0_split <- conv5
I0516 14:04:17.872586 10419 net.cpp:411] conv5_relu5_0_split -> conv5_relu5_0_split_0
I0516 14:04:17.872602 10419 net.cpp:411] conv5_relu5_0_split -> conv5_relu5_0_split_1
I0516 14:04:17.872822 10419 net.cpp:153] Setting up conv5_relu5_0_split
I0516 14:04:17.873005 10419 net.cpp:160] Top shape: 2 256 39 64 (1277952)
I0516 14:04:17.873070 10419 net.cpp:160] Top shape: 2 256 39 64 (1277952)
I0516 14:04:17.873167 10419 net.cpp:168] Memory required for data: 504172920
I0516 14:04:17.873219 10419 layer_factory.hpp:77] Creating layer roi_pool_conv5
I0516 14:04:17.873255 10419 net.cpp:115] Creating Layer roi_pool_conv5
I0516 14:04:17.873265 10419 net.cpp:437] roi_pool_conv5 <- conv5_relu5_0_split_0
I0516 14:04:17.873276 10419 net.cpp:437] roi_pool_conv5 <- rois
I0516 14:04:17.873289 10419 net.cpp:411] roi_pool_conv5 -> roi_pool_conv5
I0516 14:04:17.873304 10419 roi_pooling_layer.cpp:30] Spatial scale: 0.0625
I0516 14:04:17.873409 10419 net.cpp:153] Setting up roi_pool_conv5
I0516 14:04:17.873426 10419 net.cpp:160] Top shape: 1 256 6 6 (9216)
I0516 14:04:17.873433 10419 net.cpp:168] Memory required for data: 504209784
I0516 14:04:17.873441 10419 layer_factory.hpp:77] Creating layer fc6
I0516 14:04:17.873462 10419 net.cpp:115] Creating Layer fc6
I0516 14:04:17.873471 10419 net.cpp:437] fc6 <- roi_pool_conv5
I0516 14:04:17.873482 10419 net.cpp:411] fc6 -> fc6
I0516 14:04:17.991856 10419 net.cpp:153] Setting up fc6
I0516 14:04:17.991919 10419 net.cpp:160] Top shape: 1 4096 (4096)
I0516 14:04:17.991926 10419 net.cpp:168] Memory required for data: 504226168
I0516 14:04:17.991942 10419 layer_factory.hpp:77] Creating layer relu6
I0516 14:04:17.991960 10419 net.cpp:115] Creating Layer relu6
I0516 14:04:17.991968 10419 net.cpp:437] relu6 <- fc6
I0516 14:04:17.991979 10419 net.cpp:398] relu6 -> fc6 (in-place)
I0516 14:04:17.991997 10419 net.cpp:153] Setting up relu6
I0516 14:04:17.992007 10419 net.cpp:160] Top shape: 1 4096 (4096)
I0516 14:04:17.992015 10419 net.cpp:168] Memory required for data: 504242552
I0516 14:04:17.992023 10419 layer_factory.hpp:77] Creating layer drop6
I0516 14:04:17.992058 10419 net.cpp:115] Creating Layer drop6
I0516 14:04:17.992071 10419 net.cpp:437] drop6 <- fc6
I0516 14:04:17.992079 10419 net.cpp:398] drop6 -> fc6 (in-place)
I0516 14:04:17.992126 10419 net.cpp:153] Setting up drop6
I0516 14:04:17.992137 10419 net.cpp:160] Top shape: 1 4096 (4096)
I0516 14:04:17.992142 10419 net.cpp:168] Memory required for data: 504258936
I0516 14:04:17.992147 10419 layer_factory.hpp:77] Creating layer fc7
I0516 14:04:17.992159 10419 net.cpp:115] Creating Layer fc7
I0516 14:04:17.992172 10419 net.cpp:437] fc7 <- fc6
I0516 14:04:17.992179 10419 net.cpp:411] fc7 -> fc7
I0516 14:04:18.040608 10419 net.cpp:153] Setting up fc7
I0516 14:04:18.040664 10419 net.cpp:160] Top shape: 1 4096 (4096)
I0516 14:04:18.040671 10419 net.cpp:168] Memory required for data: 504275320
I0516 14:04:18.040686 10419 layer_factory.hpp:77] Creating layer relu7
I0516 14:04:18.040702 10419 net.cpp:115] Creating Layer relu7
I0516 14:04:18.040711 10419 net.cpp:437] relu7 <- fc7
I0516 14:04:18.040721 10419 net.cpp:398] relu7 -> fc7 (in-place)
I0516 14:04:18.040735 10419 net.cpp:153] Setting up relu7
I0516 14:04:18.040741 10419 net.cpp:160] Top shape: 1 4096 (4096)
I0516 14:04:18.040746 10419 net.cpp:168] Memory required for data: 504291704
I0516 14:04:18.040751 10419 layer_factory.hpp:77] Creating layer drop7
I0516 14:04:18.040760 10419 net.cpp:115] Creating Layer drop7
I0516 14:04:18.040771 10419 net.cpp:437] drop7 <- fc7
I0516 14:04:18.040778 10419 net.cpp:398] drop7 -> fc7 (in-place)
I0516 14:04:18.040818 10419 net.cpp:153] Setting up drop7
I0516 14:04:18.040830 10419 net.cpp:160] Top shape: 1 4096 (4096)
I0516 14:04:18.040835 10419 net.cpp:168] Memory required for data: 504308088
I0516 14:04:18.040841 10419 layer_factory.hpp:77] Creating layer fc7_drop7_0_split
I0516 14:04:18.040849 10419 net.cpp:115] Creating Layer fc7_drop7_0_split
I0516 14:04:18.040855 10419 net.cpp:437] fc7_drop7_0_split <- fc7
I0516 14:04:18.040863 10419 net.cpp:411] fc7_drop7_0_split -> fc7_drop7_0_split_0
I0516 14:04:18.040873 10419 net.cpp:411] fc7_drop7_0_split -> fc7_drop7_0_split_1
I0516 14:04:18.040925 10419 net.cpp:153] Setting up fc7_drop7_0_split
I0516 14:04:18.040937 10419 net.cpp:160] Top shape: 1 4096 (4096)
I0516 14:04:18.040943 10419 net.cpp:160] Top shape: 1 4096 (4096)
I0516 14:04:18.040948 10419 net.cpp:168] Memory required for data: 504340856
I0516 14:04:18.040953 10419 layer_factory.hpp:77] Creating layer cls_score
I0516 14:04:18.040966 10419 net.cpp:115] Creating Layer cls_score
I0516 14:04:18.040971 10419 net.cpp:437] cls_score <- fc7_drop7_0_split_0
I0516 14:04:18.040979 10419 net.cpp:411] cls_score -> cls_score
I0516 14:04:18.041404 10419 net.cpp:153] Setting up cls_score
I0516 14:04:18.041417 10419 net.cpp:160] Top shape: 1 2 (2)
I0516 14:04:18.041425 10419 net.cpp:168] Memory required for data: 504340864
I0516 14:04:18.041435 10419 layer_factory.hpp:77] Creating layer bbox_pred
I0516 14:04:18.041445 10419 net.cpp:115] Creating Layer bbox_pred
I0516 14:04:18.041451 10419 net.cpp:437] bbox_pred <- fc7_drop7_0_split_1
I0516 14:04:18.041460 10419 net.cpp:411] bbox_pred -> bbox_pred
I0516 14:04:18.044072 10419 net.cpp:153] Setting up bbox_pred
I0516 14:04:18.044090 10419 net.cpp:160] Top shape: 1 8 (8)
I0516 14:04:18.044095 10419 net.cpp:168] Memory required for data: 504340896
I0516 14:04:18.044113 10419 layer_factory.hpp:77] Creating layer loss_cls
I0516 14:04:18.044127 10419 net.cpp:115] Creating Layer loss_cls
I0516 14:04:18.044134 10419 net.cpp:437] loss_cls <- cls_score
I0516 14:04:18.044140 10419 net.cpp:437] loss_cls <- labels
I0516 14:04:18.044148 10419 net.cpp:411] loss_cls -> cls_loss
…
I0516 14:04:18.044534 10419 net.cpp:153] Setting up loss_bbox
I0516 14:04:18.044546 10419 net.cpp:160] Top shape: (1)
I0516 14:04:18.044553 10419 net.cpp:163]     with loss weight 1
I0516 14:04:18.044559 10419 net.cpp:168] Memory required for data: 504340904
I0516 14:04:18.044565 10419 layer_factory.hpp:77] Creating layer rpn_conv1
I0516 14:04:18.044579 10419 net.cpp:115] Creating Layer rpn_conv1
I0516 14:04:18.044586 10419 net.cpp:437] rpn_conv1 <- conv5_relu5_0_split_1
I0516 14:04:18.044595 10419 net.cpp:411] rpn_conv1 -> rpn_conv1
I0516 14:04:18.062978 10419 net.cpp:153] Setting up rpn_conv1
I0516 14:04:18.062995 10419 net.cpp:160] Top shape: 2 256 39 64 (1277952)
I0516 14:04:18.063005 10419 net.cpp:168] Memory required for data: 509452712
I0516 14:04:18.063014 10419 layer_factory.hpp:77] Creating layer rpn_relu1
I0516 14:04:18.063022 10419 net.cpp:115] Creating Layer rpn_relu1
I0516 14:04:18.063029 10419 net.cpp:437] rpn_relu1 <- rpn_conv1
I0516 14:04:18.063035 10419 net.cpp:398] rpn_relu1 -> rpn_conv1 (in-place)
I0516 14:04:18.063043 10419 net.cpp:153] Setting up rpn_relu1
I0516 14:04:18.063050 10419 net.cpp:160] Top shape: 2 256 39 64 (1277952)
I0516 14:04:18.063055 10419 net.cpp:168] Memory required for data: 514564520
I0516 14:04:18.063060 10419 layer_factory.hpp:77] Creating layer rpn_conv1_rpn_relu1_0_split
I0516 14:04:18.063066 10419 net.cpp:115] Creating Layer rpn_conv1_rpn_relu1_0_split
I0516 14:04:18.063071 10419 net.cpp:437] rpn_conv1_rpn_relu1_0_split <- rpn_conv1
I0516 14:04:18.063077 10419 net.cpp:411] rpn_conv1_rpn_relu1_0_split -> rpn_conv1_rpn_relu1_0_split_0
I0516 14:04:18.063086 10419 net.cpp:411] rpn_conv1_rpn_relu1_0_split -> rpn_conv1_rpn_relu1_0_split_1
I0516 14:04:18.063150 10419 net.cpp:153] Setting up rpn_conv1_rpn_relu1_0_split
I0516 14:04:18.063163 10419 net.cpp:160] Top shape: 2 256 39 64 (1277952)
I0516 14:04:18.063169 10419 net.cpp:160] Top shape: 2 256 39 64 (1277952)
I0516 14:04:18.063174 10419 net.cpp:168] Memory required for data: 524788136
I0516 14:04:18.063179 10419 layer_factory.hpp:77] Creating layer rpn_cls_score
I0516 14:04:18.063192 10419 net.cpp:115] Creating Layer rpn_cls_score
I0516 14:04:18.063199 10419 net.cpp:437] rpn_cls_score <- rpn_conv1_rpn_relu1_0_split_0
I0516 14:04:18.063207 10419 net.cpp:411] rpn_cls_score -> rpn_cls_score
I0516 14:04:18.063699 10419 net.cpp:153] Setting up rpn_cls_score
I0516 14:04:18.063714 10419 net.cpp:160] Top shape: 2 18 39 64 (89856)
I0516 14:04:18.063721 10419 net.cpp:168] Memory required for data: 525147560
I0516 14:04:18.063730 10419 layer_factory.hpp:77] Creating layer rpn_bbox_pred
I0516 14:04:18.063750 10419 net.cpp:115] Creating Layer rpn_bbox_pred
I0516 14:04:18.063755 10419 net.cpp:437] rpn_bbox_pred <- rpn_conv1_rpn_relu1_0_split_1
I0516 14:04:18.063765 10419 net.cpp:411] rpn_bbox_pred -> rpn_bbox_pred
I0516 14:04:18.064385 10419 net.cpp:153] Setting up rpn_bbox_pred
I0516 14:04:18.064401 10419 net.cpp:160] Top shape: 2 36 39 64 (179712)
I0516 14:04:18.064410 10419 net.cpp:168] Memory required for data: 525866408
I0516 14:04:18.064420 10419 layer_factory.hpp:77] Creating layer silence_rpn_cls_score
I0516 14:04:18.064431 10419 net.cpp:115] Creating Layer silence_rpn_cls_score
I0516 14:04:18.064438 10419 net.cpp:437] silence_rpn_cls_score <- rpn_cls_score
I0516 14:04:18.064446 10419 net.cpp:153] Setting up silence_rpn_cls_score
…
